…
        },
        "id": "LfEiKY8cHUcz",
        "outputId": "8a49f1b5-e017-4d3a-e1df-5474a7d8e7bb"
      },
      "source": [
        "model.summary()"
      ],
      "execution_count": 10,
      "outputs": [
        {
          "output_type": "stream",
          "text": [
            "Model: \"sequential\"\n",
            "_________________________________________________________________\n",
            "Layer (type)                 Output Shape              Param #   \n",
            "=================================================================\n",
            "conv2d (Conv2D)              (None, 148, 148, 32)      896       \n",
            "_________________________________________________________________\n",
            "max_pooling2d (MaxPooling2D) (None, 74, 74, 32)        0         \n",
            "_________________________________________________________________\n",
            "conv2d_1 (Conv2D)            (None, 72, 72, 64)        18496     \n",
            "_________________________________________________________________\n",
            "max_pooling2d_1 (MaxPooling2 (None, 36, 36, 64)        0         \n",
            "_________________________________________________________________\n",
            "conv2d_2 (Conv2D)            (None, 34, 34, 128)       73856     \n",
            "_________________________________________________________________\n",
            "max_pooling2d_2 (MaxPooling2 (None, 17, 17, 128)       0         \n",
            "_________________________________________________________________\n",
            "conv2d_3 (Conv2D)            (None, 15, 15, 128)       147584    \n",
            "_________________________________________________________________\n",
            "max_pooling2d_3 (MaxPooling2 (None, 7, 7, 128)         0         \n",
            "_________________________________________________________________\n",
            "flatten (Flatten)            (None, 6272)              0         \n",
            "_________________________________________________________________\n",
            "dense (Dense)                (None, 512)               3211776   \n",
            "_________________________________________________________________\n",
            "dense_1 (Dense)              (None, 1)                 513       \n",
            "=================================================================\n",
            "Total params: 3,453,121\n",
            "Trainable params: 3,453,121\n",
            "Non-trainable params: 0\n",
            "_________________________________________________________________\n"
          ],
          "name": "stdout"
        }
      ]
    },
    {
      "cell_type": "code",
…
      "execution_count": 3,
      "outputs": [
        {
          "output_type": "stream",
          "text": [
            "Model: \"vgg16\"\n",
            "_________________________________________________________________\n",
            "Layer (type)                 Output Shape              Param #   \n",
            "=================================================================\n",
            "input_1 (InputLayer)         [(None, 150, 150, 3)]     0         \n",
            "_________________________________________________________________\n",
            "block1_conv1 (Conv2D)        (None, 150, 150, 64)      1792      \n",
            "_________________________________________________________________\n",
            "block1_conv2 (Conv2D)        (None, 150, 150, 64)      36928     \n",
            "_________________________________________________________________\n",
            "block1_pool (MaxPooling2D)   (None, 75, 75, 64)        0         \n",
            "_________________________________________________________________\n",
            "block2_conv1 (Conv2D)        (None, 75, 75, 128)       73856     \n",
            "_________________________________________________________________\n",
            "block2_conv2 (Conv2D)        (None, 75, 75, 128)       147584    \n",
            "_________________________________________________________________\n",
            "block2_pool (MaxPooling2D)   (None, 37, 37, 128)       0         \n",
            "_________________________________________________________________\n",
            "block3_conv1 (Conv2D)        (None, 37, 37, 256)       295168    \n",
            "_________________________________________________________________\n",
            "block3_conv2 (Conv2D)        (None, 37, 37, 256)       590080    \n",
            "_________________________________________________________________\n",
            "block3_conv3 (Conv2D)        (None, 37, 37, 256)       590080    \n",
            "_________________________________________________________________\n",
            "block3_pool (MaxPooling2D)   (None, 18, 18, 256)       0         \n",
            "_________________________________________________________________\n",
            "block4_conv1 (Conv2D)        (None, 18, 18, 512)       1180160   \n",
            "_________________________________________________________________\n",
            "block4_conv2 (Conv2D)        (None, 18, 18, 512)       2359808   \n",
            "_________________________________________________________________\n",
            "block4_conv3 (Conv2D)        (None, 18, 18, 512)       2359808   \n",
            "_________________________________________________________________\n",
            "block4_pool (MaxPooling2D)   (None, 9, 9, 512)         0         \n",
            "_________________________________________________________________\n",
            "block5_conv1 (Conv2D)        (None, 9, 9, 512)         2359808   \n",
            "_________________________________________________________________\n",
            "block5_conv2 (Conv2D)        (None, 9, 9, 512)         2359808   \n",
            "_________________________________________________________________\n",
            "block5_conv3 (Conv2D)        (None, 9, 9, 512)         2359808   \n",
            "_________________________________________________________________\n",
            "block5_pool (MaxPooling2D)   (None, 4, 4, 512)         0         \n",
            "=================================================================\n",
            "Total params: 14,714,688\n",
            "Trainable params: 14,714,688\n",
            "Non-trainable params: 0\n",
            "_________________________________________________________________\n"
          ],
          "name": "stdout"
        }
      ]
    },
    {
      "cell_type": "code",
…
